# YOLOv5 🚀 by Ultralytics, GPL-3.0 license

# Parameters
nc: 80  # number of classes
depth_multiple: 1.0  # model depth multiple
width_multiple: 1.0  # layer channel multiple
anchors:
  - [10,13, 16,30, 33,23]  # P3/8
  - [30,61, 62,45, 59,119]  # P4/16
  - [116,90, 156,198, 373,326]  # P5/32

# YOLOv5 v6.0 backbone
backbone:
  # [from, number, module, args]
  [[-1, 1, Conv, [32, 3, 1]],  # 0
  
   [-1, 1, Conv, [64, 3, 2]],  # 1-P1/2      
   [-1, 1, Conv, [64, 3, 1]],
   
   [-1, 1, Conv, [128, 3, 2]],  # 3-P2/4  
   [-1, 1, Conv, [64, 1, 1]],
   [-2, 1, Conv, [64, 1, 1]],
   [-1, 1, Conv, [64, 3, 1]],
   [-1, 1, Conv, [64, 3, 1]],
   [-1, 1, Conv, [64, 3, 1]],
   [-1, 1, Conv, [64, 3, 1]],
   [[-1, -3, -5, -6], 1, Concat, [1]],
   [-1, 1, Conv, [256, 1, 1]],  # 11
   
   [-1, 1, MP, []],
   [-1, 1, Conv, [128, 1, 1]],
   [-3, 1, Conv, [128, 1, 1]],
   [-1, 1, Conv, [128, 3, 2]],
   [[-1, -3], 1, Concat, [1]],  # 16-P3/8  
   [-1, 1, Conv, [128, 1, 1]],
   [-2, 1, Conv, [128, 1, 1]],
   [-1, 1, Conv, [128, 3, 1]],
   [-1, 1, Conv, [128, 3, 1]],
   [-1, 1, Conv, [128, 3, 1]],
   [-1, 1, Conv, [128, 3, 1]],
   [[-1, -3, -5, -6], 1, Concat, [1]],
   [-1, 1, Conv, [512, 1, 1]],  # 24
   
   [-1, 1, MP, []],
   [-1, 1, Conv, [256, 1, 1]],
   [-3, 1, Conv, [256, 1, 1]],
   [-1, 1, Conv, [256, 3, 2]],
   [[-1, -3], 1, Concat, [1]],  # 29-P4/16  
   [-1, 1, Conv, [256, 1, 1]],
   [-2, 1, Conv, [256, 1, 1]],
   [-1, 1, Conv, [256, 3, 1]],
   [-1, 1, Conv, [256, 3, 1]],
   [-1, 1, Conv, [256, 3, 1]],
   [-1, 1, Conv, [256, 3, 1]],
   [[-1, -3, -5, -6], 1, Concat, [1]],
   [-1, 1, Conv, [1024, 1, 1]],  # 37
   
   [-1, 1, MP, []],
   [-1, 1, Conv, [512, 1, 1]],
   [-3, 1, Conv, [512, 1, 1]],
   [-1, 1, Conv, [512, 3, 2]],
   [[-1, -3], 1, Concat, [1]],  # 42-P5/32  
   [-1, 1, Conv, [256, 1, 1]],
   [-2, 1, Conv, [256, 1, 1]],
   [-1, 1, Conv, [256, 3, 1]],
   [-1, 1, Conv, [256, 3, 1]],
   [-1, 1, Conv, [256, 3, 1]],
   [-1, 1, Conv, [256, 3, 1]],
   [[-1, -3, -5, -6], 1, Concat, [1]],
   [-1, 1, Conv, [1024, 1, 1]],  # 50
   [-1, 1, nn.Upsample, [None, 4, 'nearest']],
   [37, 1, nn.Upsample, [None, 2, 'nearest']],
   [[24, -1, -2,], 1, Concat, [1]],
   [-1, 1, Classify, [360]]
  #  [-1, 1, Classify, [360]],
  #  [37, 1, Classify, [360]],
  #  [24, 1, Classify, [360]],
  #  [[-1, -2,-3], 1, Concat, [1]]
  ]

# head:
#   [[-1, 1, SPPCSPC, [512]], # 51
  
#    [-1, 1, Conv, [256, 1, 1]],
#    [-1, 1, nn.Upsample, [None, 2, 'nearest']],
#    [37, 1, Conv, [256, 1, 1]], # route backbone P4
#    [[-1, -2], 1, Concat, [1]],
   
#    [-1, 1, Conv, [256, 1, 1]],
#    [-2, 1, Conv, [256, 1, 1]],
#    [-1, 1, Conv, [128, 3, 1]],
#    [-1, 1, Conv, [128, 3, 1]],
#    [-1, 1, Conv, [128, 3, 1]],
#    [-1, 1, Conv, [128, 3, 1]],
#    [[-1, -2, -3, -4, -5, -6], 1, Concat, [1]],
#    [-1, 1, Conv, [256, 1, 1]], # 63
   
#    [-1, 1, Conv, [128, 1, 1]],
#    [-1, 1, nn.Upsample, [None, 2, 'nearest']],
#    [24, 1, Conv, [128, 1, 1]], # route backbone P3
#    [[-1, -2], 1, Concat, [1]],
   
#    [-1, 1, Conv, [128, 1, 1]],
#    [-2, 1, Conv, [128, 1, 1]],
#    [-1, 1, Conv, [64, 3, 1]],
#    [-1, 1, Conv, [64, 3, 1]],
#    [-1, 1, Conv, [64, 3, 1]],
#    [-1, 1, Conv, [64, 3, 1]],
#    [[-1, -2, -3, -4, -5, -6], 1, Concat, [1]],
#    [-1, 1, Conv, [128, 1, 1]], # 75
      
#    [-1, 1, MP, []],
#    [-1, 1, Conv, [128, 1, 1]],
#    [-3, 1, Conv, [128, 1, 1]],
#    [-1, 1, Conv, [128, 3, 2]],
#    [[-1, -3, 63], 1, Concat, [1]],
   
#    [-1, 1, Conv, [256, 1, 1]],
#    [-2, 1, Conv, [256, 1, 1]],
#    [-1, 1, Conv, [128, 3, 1]],
#    [-1, 1, Conv, [128, 3, 1]],
#    [-1, 1, Conv, [128, 3, 1]],
#    [-1, 1, Conv, [128, 3, 1]],
#    [[-1, -2, -3, -4, -5, -6], 1, Concat, [1]],
#    [-1, 1, Conv, [256, 1, 1]], # 88
      
#    [-1, 1, MP, []],
#    [-1, 1, Conv, [256, 1, 1]],
#    [-3, 1, Conv, [256, 1, 1]],
#    [-1, 1, Conv, [256, 3, 2]],
#    [[-1, -3, 51], 1, Concat, [1]],
   
#    [-1, 1, Conv, [512, 1, 1]],
#    [-2, 1, Conv, [512, 1, 1]],
#    [-1, 1, Conv, [256, 3, 1]],
#    [-1, 1, Conv, [256, 3, 1]],
#    [-1, 1, Conv, [256, 3, 1]],
#    [-1, 1, Conv, [256, 3, 1]],
#    [[-1, -2, -3, -4, -5, -6], 1, Concat, [1]],
#    [-1, 1, Conv, [512, 1, 1]], # 101

#    [75, 1, RepConv, [256, 3, 1]],
#    [88, 1, RepConv, [512, 3, 1]],
#    [101, 1, RepConv, [1024, 3, 1]],
   
#    [-1, 1, Classify, [360]], #101
#    [-3, 1, Classify, [360]], #88
#    [-5, 1, Classify, [360]], #75
#    [[-1, -2,-3], 1, Concat, [1]]
#   ]